…
Last login: Mon Mar  7 03:04:41 2022 from 192.168.4.229
rm: cannot remove '/lib': Is a directory
root@76026760688b:~# cd /workspace/data/GeoLPDTraining-master/LPD/
root@76026760688b:/workspace/data/GeoLPDTraining-master/LPD# bash test_LPD_retrain.sh
: No such file or directory: cd: LPD/
 CUDA-version: 10010 (10010), cuDNN: 7.5.0, GPU count: 8
 OpenCV version: 4.9.1
subdivisions: Using default '1'
 0 : compute_capability = 700, cudnn_half = 0, GPU: Tesla V100-SXM2-32GB
net.optimized_memory = 0
mini_batch = 1, batch = 1, time_steps = 1, train = 0
   layer   filters  size/strd(dil)      input                output
   0 conv     16       3 x 3/ 1    416 x 416 x   3 ->  416 x 416 x  16 0.150 BF
   1 max                2x 2/ 2    416 x 416 x  16 ->  208 x 208 x  16 0.003 BF
   2 conv     32       3 x 3/ 1    208 x 208 x  16 ->  208 x 208 x  32 0.399 BF
   3 max                2x 2/ 2    208 x 208 x  32 ->  104 x 104 x  32 0.001 BF
   4 conv     64       3 x 3/ 1    104 x 104 x  32 ->  104 x 104 x  64 0.399 BF
   5 max                2x 2/ 2    104 x 104 x  64 ->   52 x  52 x  64 0.001 BF
   6 conv    128       3 x 3/ 1     52 x  52 x  64 ->   52 x  52 x 128 0.399 BF
   7 max                2x 2/ 2     52 x  52 x 128 ->   26 x  26 x 128 0.000 BF
   8 conv    256       3 x 3/ 1     26 x  26 x 128 ->   26 x  26 x 256 0.399 BF
   9 max                2x 2/ 2     26 x  26 x 256 ->   13 x  13 x 256 0.000 BF
  10 conv    512       3 x 3/ 1     13 x  13 x 256 ->   13 x  13 x 512 0.399 BF
  11 conv   1024       3 x 3/ 1     13 x  13 x 512 ->   13 x  13 x1024 1.595 BF
  12 conv    256       1 x 1/ 1     13 x  13 x1024 ->   13 x  13 x 256 0.089 BF
  13 conv    512       3 x 3/ 1     13 x  13 x 256 ->   13 x  13 x 512 0.399 BF
  14 conv     18       1 x 1/ 1     13 x  13 x 512 ->   13 x  13 x  18 0.003 BF
  15 yolo
[yolo] params: iou loss: mse (2), iou_norm: 0.75, cls_norm: 1.00, scale_x_y: 1.00
  16 route  12                                     ->   13 x  13 x 256
  17 conv    128       1 x 1/ 1     13 x  13 x 256 ->   13 x  13 x 128 0.011 BF
  18 upsample                 2x    13 x  13 x 128 ->   26 x  26 x 128
  19 route  18 8                                   ->   26 x  26 x 384
  20 conv    256       3 x 3/ 1     26 x  26 x 384 ->   26 x  26 x 256 1.196 BF
  21 conv     18       1 x 1/ 1     26 x  26 x 256 ->   26 x  26 x  18 0.006 BF
  22 yolo
[yolo] params: iou loss: mse (2), iou_norm: 0.75, cls_norm: 1.00, scale_x_y: 1.00
Total BFLOPS 5.447
avg_outputs = 335207
 Allocate additional workspace_size = 52.43 MB
Loading weights from ./model/LPD_retrain_300000.weights...
 seen 64, trained: 38400 K-images (600 Kilo-batches_64)
Done! Loaded 23 layers from weights-file

 calculation mAP (mean average precision)...
…
